…
            "[2026-04-21 12:36:47,248 INFO]  * merging src and tgt vocab...\n",
            "[2026-04-21 12:36:47,249 INFO]  * merged vocab size: 296.\n",
            "[2026-04-21 12:36:47,249 INFO]  * src vocab size = 296\n",
            "[2026-04-21 12:36:47,249 INFO]  * tgt vocab size = 296\n",
            "[2026-04-21 12:36:47,269 INFO] Building model...\n",
            "[2026-04-21 12:36:47,812 INFO] NMTModel(\n",
            "  (encoder): TransformerEncoder(\n",
            "    (embeddings): Embeddings(\n",
            "      (make_embedding): Sequential(\n",
            "        (emb_luts): Elementwise(\n",
            "          (0): Embedding(296, 384, padding_idx=1)\n",
            "        )\n",
            "        (pe): PositionalEncoding(\n",
            "          (dropout): Dropout(p=0.1, inplace=False)\n",
            "        )\n",
            "      )\n",
            "    )\n",
            "    (transformer): ModuleList(\n",
            "      (0-3): 4 x TransformerEncoderLayer(\n",
            "        (self_attn): MultiHeadedAttention(\n",
            "          (linear_keys): Linear(in_features=384, out_features=384, bias=True)\n",
            "          (linear_values): Linear(in_features=384, out_features=384, bias=True)\n",
            "          (linear_query): Linear(in_features=384, out_features=384, bias=True)\n",
            "          (softmax): Softmax(dim=-1)\n",
            "          (dropout): Dropout(p=0.1, inplace=False)\n",
            "          (final_linear): Linear(in_features=384, out_features=384, bias=True)\n",
            "        )\n",
            "        (feed_forward): PositionwiseFeedForward(\n",
            "          (w_1): Linear(in_features=384, out_features=2048, bias=True)\n",
            "          (w_2): Linear(in_features=2048, out_features=384, bias=True)\n",
            "          (layer_norm): LayerNorm((384,), eps=1e-06, elementwise_affine=True)\n",
            "          (dropout_1): Dropout(p=0.1, inplace=False)\n",
            "          (dropout_2): Dropout(p=0.1, inplace=False)\n",
            "        )\n",
            "        (layer_norm): LayerNorm((384,), eps=1e-06, elementwise_affine=True)\n",
            "        (dropout): Dropout(p=0.1, inplace=False)\n",
            "      )\n",
            "    )\n",
            "    (layer_norm): LayerNorm((384,), eps=1e-06, elementwise_affine=True)\n",
            "  )\n",
            "  (decoder): TransformerDecoder(\n",
            "    (embeddings): Embeddings(\n",
            "      (make_embedding): Sequential(\n",
            "        (emb_luts): Elementwise(\n",
            "          (0): Embedding(296, 384, padding_idx=1)\n",
            "        )\n",
            "        (pe): PositionalEncoding(\n",
            "          (dropout): Dropout(p=0.1, inplace=False)\n",
            "        )\n",
            "      )\n",
            "    )\n",
            "    (layer_norm): LayerNorm((384,), eps=1e-06, elementwise_affine=True)\n",
            "    (transformer_layers): ModuleList(\n",
            "      (0-3): 4 x TransformerDecoderLayer(\n",
            "        (self_attn): MultiHeadedAttention(\n",
            "          (linear_keys): Linear(in_features=384, out_features=384, bias=True)\n",
            "          (linear_values): Linear(in_features=384, out_features=384, bias=True)\n",
            "          (linear_query): Linear(in_features=384, out_features=384, bias=True)\n",
            "          (softmax): Softmax(dim=-1)\n",
            "          (dropout): Dropout(p=0.1, inplace=False)\n",
            "          (final_linear): Linear(in_features=384, out_features=384, bias=True)\n",
            "        )\n",
            "        (feed_forward): PositionwiseFeedForward(\n",
            "          (w_1): Linear(in_features=384, out_features=2048, bias=True)\n",
            "          (w_2): Linear(in_features=2048, out_features=384, bias=True)\n",
            "          (layer_norm): LayerNorm((384,), eps=1e-06, elementwise_affine=True)\n",
            "          (dropout_1): Dropout(p=0.1, inplace=False)\n",
            "          (dropout_2): Dropout(p=0.1, inplace=False)\n",
            "        )\n",
            "        (layer_norm_1): LayerNorm((384,), eps=1e-06, elementwise_affine=True)\n",
            "        (drop): Dropout(p=0.1, inplace=False)\n",
            "        (context_attn): MultiHeadedAttention(\n",
            "          (linear_keys): Linear(in_features=384, out_features=384, bias=True)\n",
            "          (linear_values): Linear(in_features=384, out_features=384, bias=True)\n",
            "          (linear_query): Linear(in_features=384, out_features=384, bias=True)\n",
            "          (softmax): Softmax(dim=-1)\n",
            "          (dropout): Dropout(p=0.1, inplace=False)\n",
            "          (final_linear): Linear(in_features=384, out_features=384, bias=True)\n",
            "        )\n",
            "        (layer_norm_2): LayerNorm((384,), eps=1e-06, elementwise_affine=True)\n",
            "      )\n",
            "    )\n",
            "  )\n",
            "  (generator): Sequential(\n",
            "    (0): Linear(in_features=384, out_features=296, bias=True)\n",
            "    (1): Cast()\n",
            "    (2): LogSoftmax(dim=-1)\n",
            "  )\n",
            ")\n",
            "[2026-04-21 12:36:47,813 INFO] encoder: 8787200\n",
            "[2026-04-21 12:36:47,813 INFO] decoder: 11156008\n",
            "[2026-04-21 12:36:47,813 INFO] * number of parameters: 19943208\n",
            "2026-04-21 12:36:57.165334: E external/local_xla/xla/stream_executor/cuda/cuda_fft.cc:467] Unable to register cuFFT factory: Attempting to register factory for plugin cuFFT when one has already been registered\n",
…
